assets/basic_pitch_pytorch_icassp_2022.pth (torch, 75374 bytes, 11 tensors)

conv_contour.0.bias f4 [8]
00000000: 23b1 d2b9 e54d a239 8413 d438 df34 9dba
00000010: 2383 c4b8 c71c 6bba cd9e eab9 f29a 273a
-0.00040186298 0.00030957084 0.00010112583 -0.0011993906 -9.3704344e-05 -0.0008968827 -0.00044750274 0.0006393633

conv_contour.1.weight f4 [8]
00000000: 9215 ec3e d2e9 063f 8cc0 603f f060 3c3f
00000010: 1860 673f 940a 003f ae97 223e dc15 503f
0.46110207 0.5270053 0.87793803 0.73585415 0.90381 0.5001614 0.15878174 0.81283355

conv_contour.1.bias f4 [8]
00000000: 9e7b 2c3f e52f 5fbf 8de2 ccbe 1870 fb3e
00000010: 3689 9ebe a5e5 4a3f 25d2 553f fef7 79bf
0.67376125 -0.87182456 -0.40016595 0.49108958 -0.3096406 0.7925666 0.8352378 -0.9764403

conv_contour.1.running_mean f4 [8]
00000000: 4344 febd 5a86 9a3e 784e 633f 569a acbe
00000010: fe44 ea3d 98ee 08bf d10b 813f 7c4a d03e
-0.12415364 0.30180627 0.8879161 -0.337115 0.114389405 -0.53489065 1.0081731 0.40681827

conv_contour.1.running_var f4 [8]
00000000: bde7 a83e c5a2 453e d0c7 4f3f 4214 823e
00000010: c028 a63e d6a5 da3e 635f 933f 1fe4 8b3e
0.32989302 0.19300373 0.81164265 0.2540608 0.32452965 0.42704648 1.1513485 0.2732248

conv_note.0.bias f4 [32]
00000000: 11af 9e3e c786 0d3f 293d a03e 9cd3 e23e
00000010: 4a31 133f f73c c1bd 5d92 2ebd 0c0c 61be
00000020: fa78 963e c3d0 ef3e 1cda 2a3f 5784 66bd
00000030: c60e 1d3e 1bb5 123e c94b a53e 1f2e adbe
00000040: e433 023f 4582 1c3f 573d acbe 8400 aa3e
00000050: a51e 0a3f 2900 123f 76c8 2b3e d074 aabd
00000060: aa3d 87bd 035b 2d3f 63ff 853f 834a 79be
00000070: f31a 553d 81fe 3e3d c46b 1f3e 9d99 2f3e
0.3099294 0.5528378 0.31296661 0.4430207 0.57497084 -0.09435456 -0.04262005 -0.21977252
0.29389173 0.4683896 0.6673906 -0.056278553 0.15337667 0.14326899 0.32284382 -0.3382425
0.5086043 0.61136276 -0.3364055 0.33203518 0.5395301 0.57031494 0.16775689 -0.083230615
-0.06603558 0.67717 1.0468563 -0.2434483 0.052027654 0.046629433 0.15568453 0.17148443

conv_onset_pre.0.bias f4 [32]
00000000: 915f 6c39 abef 6ab8 8596 78b8 d1c1 0a3a
00000010: c4ab 273a 7101 7739 b668 9bb9 d521 cf39
00000020: ff4a d239 d43f a639 e3df 2f39 cce4 3aba
00000030: 3856 9d39 db79 6539 ff40 103a c3e3 00b9
00000040: 3b4a d539 a9e5 95ba 6b18 1eba 6b1a 5638
00000050: b021 fdb9 5898 a139 f608 95b9 cd5b 8f39
00000060: 94c6 84ba 44b2 d539 e8f8 e639 e80c efb8
00000070: 024e ad39 5562 96ba d4fb 3cb9 562e 5739
0.00022542315 -5.6013156e-05 -5.926799e-05 0.0005293163 0.00063961395 0.00023556293 -0.0002964192 0.00039507324
0.00040110198 0.00031709543 0.00016772705 -0.00071294303 0.00030009612 0.00021884537 0.0005502849 -0.00012291879
0.00040681832 -0.0011436242 -0.000603086 5.104618e-05 -0.0004828102 0.00030821818 -0.0002842617 0.00027343482
-0.0010129982 0.00040759344 0.00044054468 -0.00011398812 0.00033055252 -0.0011473397 -0.0001802289 0.0002052126

conv_onset_pre.1.weight f4 [32]
00000000: fd7e 8f3f 1760 923f e8e1 a93f f3c6 0740
00000010: ac94 9a3f a168 933f 3200 ae3f adeb 8f3f
00000020: 601e a53f ae24 863f 6056 643f 6f97 903f
00000030: ec2a 923f 3bbb ca3f 5741 ac3f e9ce e33f
00000040: 5c1b 923f de2a 963f 929b ba3f 23d7 b33f
00000050: d84c c03f 9f8a 583f 9e91 b93f cb33 843f
00000060: 79be c83f 6e24 7e3f bdec 8f3f 8620 a83f
00000070: 72d1 993f cc18 ef3f 81a9 8f3f 51c7 803f
1.1210629 1.1435574 1.3272066 2.121518 1.2076621 1.1516305 1.359381 1.1243798
1.2899895 1.0479944 0.891943 1.1296214 1.1419349 1.5838388 1.345744 1.7797519
1.14146 1.1731832 1.4578726 1.405003 1.5023451 0.8458652 1.4497564 1.0328306
1.5683128 0.9927434 1.1244122 1.3134925 1.2017043 1.8679442 1.1223603 1.0060827

conv_onset_pre.1.bias f4 [32]
00000000: 333e 923e 7f17 02be 02db 353d 9e95 8d3f
00000010: ae05 b63f 43db a43e 4365 43bf e261 9d3e
00000020: b283 363f 42ef 273f b8b8 0c3f 14e4 5bbf
00000030: ae2f 0b3f f028 753d 46cd bc3f d1de b83e
00000040: 3edc 163f e604 25bf 7e7d 9abf c911 8dbe
00000050: 01f6 43bf f45a 7e3f cc8d fcbe 1458 cd3e
00000060: f1d2 08c0 531d 573f db85 10be fbe5 71be
00000070: ab04 393f 329c 9cbf 1872 b5be d06e 243f
0.2856308 -0.12704276 0.044398315 1.1061285 1.4220483 0.32198533 -0.7632639 0.3073874
0.712947 0.65599453 0.5496936 -0.85894895 0.5436963 0.059853494 1.4750144 0.36107495
0.5892981 -0.644606 -1.2069547 -0.27552631 -0.7654725 0.99357533 -0.49326932 0.4010626
-2.1378748 0.8402912 -0.14113562 -0.23622887 0.7227275 -1.2235167 -0.3543861 0.64231586

conv_onset_pre.1.running_mean f4 [32]
00000000: f8fd c43e 1397 46be 529b 6fbf edd0 9cbe
00000010: 724f 2ebe ce6e 553f bdb4 1d3e ca1f 073d
00000020: e784 07be 05f8 29be d373 843f 03b0 1e3e
00000030: 01b6 6dbe 9b4a 64be 3f0f 93bd 3abc 9f3e
00000040: 488c 5bbe 4ce8 373e 4728 353e a6bc 493c
00000050: f7c2 4b3e 8d6e 30be 600e c43d ad80 79be
00000060: 8643 2c3c 1d40 f9be 7c11 e2bc 8e70 ac3c
00000070: 5eba 2e3c ca1e 143e a92d 6a3e dab6 663c
0.38475013 -0.19393568 -0.93596375 -0.30628148 -0.17022493 0.833722 0.15400977 0.0329893
-0.13234292 -0.16598518 1.0347847 0.1549683 -0.2321396 -0.22294085 -0.07180642 0.31198293
-0.21440232 0.17959708 0.17691146 0.012313044 0.19898592 -0.17229672 0.09573054 -0.24365492
0.010514146 -0.48681727 -0.027596228 0.021049764 0.010664551 0.1446487 0.2286898 0.014081681

conv_onset_pre.1.running_var f4 [32]
00000000: 334d 863e e651 143e cc3d 593f 8ce1 2d3e
00000010: cdab 3e3e 7eca 0f3f c5c3 3a3d 69e9 ac3d
00000020: fc26 0d3e 1fa0 ea3d c33f 4f3f 3aff 0b3d
00000030: 4d6b 0c3e efc7 193e 5fc7 173e 69d6 183e
00000040: 420b 4a3e 39e5 5f3d f77c 323d 3d24 1f3e
00000050: 7531 0f3e 9ae0 603e 12af 7d3d f6b1 373e
00000060: c419 883d 4346 a53e dd7d b63d 93fb d43c
00000070: 6538 2f3e f4cd ab3d 8177 363e a53e 423d
0.26230773 0.14484367 0.8485992 0.1698057 0.18620224 0.56168354 0.045596857 0.08442957
0.13784403 0.11456322 0.8095667 0.03417895 0.13712807 0.15017675 0.14822148 0.14925541
0.19730857 0.054661963 0.043576207 0.15541168 0.1398371 0.21960679 0.06193454 0.1793898
0.066455394 0.32280168 0.08910725 0.025998866 0.17111357 0.08388892 0.17819025 0.047423024
